models/beer_model_state.pt (torch, 17107 bytes, 4 tensors)

weight f4 [32, 6]
000000 94 f6 03 3f eb 98 f6 be 52 06 37 be ca f9 49 be
       0.51548123 -0.48163542 -0.17873505 -0.19724193
000010 8c 5e c8 be ff 39 a6 be 7c 89 29 3e 4c 84 51 3e
       -0.39134634 -0.32466123 0.16556352 0.20460624
000020 26 f9 12 bf cb e3 b4 be 7d 42 ef be 25 4d 91 be
       -0.5741142 -0.35330042 -0.46730414 -0.2837917
000030 fc 4f f0 be 46 37 c2 3e 1c 94 d8 3c d3 4c e7 3e
       -0.46936023 0.37932795 0.026437812 0.451758
000040 05 ff a8 3d 23 2d 35 be 49 3c a0 be d5 ca b8 bd
       0.08251766 -0.17693 -0.31295994 -0.09023062
000050 56 ae 10 3f c7 a0 16 3f 0b 6f fb bd 62 07 2c 3e
       0.56516016 0.58839077 -0.12277039 0.16799691
000060 34 e1 ed 3e 53 89 3c be 9c 36 fb bd 28 bf 9c be
       0.4646088 -0.1841176 -0.12266275 -0.3061459
000070 f7 78 8f be 1a 72 d7 bd 1e ea 03 bf ab 11 17 3f
       -0.28021976 -0.1051981 -0.5152911 0.59011334
000080 8e 7f 4e be 34 2b cc 3e 75 ac 96 3e 91 75 0e 3f
       -0.20165846 0.3987671 0.2942845 0.5564814
000090 3c 4a 85 3e fa b8 6d 3e f4 65 c5 bc 78 1b 33 3c
       0.260332 0.23215094 -0.024096467 0.010931842
0000a0 eb de 09 3f b9 03 38 3e 65 b8 f6 be 1b 99 09 3d
       0.5385577 0.1797017 -0.48187557 0.03359328
0000b0 59 86 92 be 89 29 86 3e 01 3a fc 3e d6 af 4a 3e
       -0.28618124 0.26203564 0.49263003 0.19793639
0000c0 26 40 85 be 24 6b 86 be ea 62 b3 3d 1b c5 d4 3e
       -0.26025504 -0.26253617 0.08759101 0.4155663
0000d0 2e f7 ea 3e 15 12 70 3e 5c 86 3f 3e 35 3a 0a bf
       0.45891708 0.23444398 0.18703598 -0.53995067
0000e0 29 9b 9a be 31 a5 08 bf 8b 1c db 3d 8e d2 73 3e
       -0.30196503 -0.5337706 0.106988035 0.23810789
0000f0 07 b4 10 bf a6 13 cb 3d ef 4a b4 3e 35 1f 8a be
       -0.565247 0.09915857 0.3521342 -0.26976934
000100 61 4f 09 be 83 a9 cd 3c 77 94 bb be 62 d1 f7 bc
       -0.13409187 0.025105244 -0.36636707 -0.030251209
000110 a9 ef 8e be 3d 63 f2 3c 34 74 d5 be ea 9e a8 bd
       -0.2791722 0.029588336 -0.41690218 -0.082334355
000120 56 7a 14 3f 05 5b 92 3e 19 9b 8d 3e 62 ee b1 3e
       0.5799917 0.28585067 0.27657393 0.34752184
000130 e0 66 19 3f 49 e4 93 3e 44 29 e3 3e f0 a4 e3 3e
       0.599226 0.28885105 0.4436742 0.44461775
000140 29 32 75 bd c4 dd 59 3e 70 af ad 3e 27 72 3c be
       -0.05986229 0.21276003 0.3392291 -0.1840292
000150 b4 f1 71 be 8e fa 0d 3f c7 1c 83 3c 5e b0 3a 3e
       -0.23627359 0.5546044 0.016004933 0.18231341
000160 fa 97 ef bd df ac 1b 3d 21 00 43 be be 9a 3f 3e
       -0.11698909 0.03800666 -0.19043018 0.18711373
000170 b6 c3 9b 3c fb 6e 00 3f fe 9a 1b 3f be d2 45 3e
       0.01901422 0.5016934 0.60783374 0.19318673
000180 3b 1b a9 be d2 df bb 3e b4 28 b4 3e bf ce a9 3e
       -0.33028588 0.366942 0.35187304 0.33165547
000190 e5 c6 37 3e 7e 03 a0 3e 6b 24 c2 bd 0e 71 3b bb
       0.17946966 0.31252664 -0.094796024 -0.0028601321
0001a0 16 57 84 be 64 65 ff bd ae bf 66 3e a6 5d 30 3e
       -0.2584769 -0.124705106 0.22534057 0.17223224
0001b0 5d 8c 65 3d d3 c6 5e 3e 34 c8 0b 3f c9 53 da 3d
       0.056042064 0.21755533 0.5460236 0.10660512
0001c0 28 b3 f4 3e c7 b4 d6 3e 08 34 c9 be 8c f9 df 3e
       0.47792935 0.41934797 -0.3929751 0.43745077
0001d0 d3 40 3c 3d c2 b0 0f 3f 58 00 32 3e 0c 17 d7 3d
       0.04596026 0.56129086 0.17382944 0.10502443
0001e0 86 0e c6 be 51 99 0d 3f 2d 0f c8 3e e6 76 67 3d
       -0.38682956 0.5531207 0.39074078 0.056509875
0001f0 d6 2f ce 3e 25 40 21 be 98 f7 9c be 7b 0d 6f 3e
       0.4027087 -0.15747125 -0.3065765 0.23344986
000200 73 2b e7 3d 86 cd 50 3e 29 d2 c9 3e 1c da 0f 3f
       0.11287584 0.20390901 0.39418152 0.56192183
000210 68 5c 1b 3d 76 3c 1d 3f c7 fe fa 3e 50 22 f3 bc
       0.037929922 0.6142038 0.49022505 -0.029679447
000220 f1 50 0b 3e 7b 26 7c 3e e8 3f 1d bf 7c b9 14 3e
       0.13605095 0.24624054 -0.6142564 0.14523882
000230 b3 04 15 3f b4 a8 ee 3d 54 a0 5f be 8c 54 df bd
       0.58210295 0.11653271 -0.21838504 -0.10904798
000240 90 ee 9d be 6f 98 6a be 1b be 8b be 8e cb 27 be
       -0.3084607 -0.22909711 -0.27293476 -0.16386244
000250 10 22 2d bd 57 67 f8 bd b9 63 0c be 3a 36 d7 3d
       -0.042268813 -0.121290855 -0.13709916 0.1050839
000260 25 81 b8 be 18 58 b5 3e db d0 d4 be e0 8d 22 3e
       -0.3603603 0.35418773 -0.41565594 0.15874434
000270 53 af 17 3e c8 34 91 be fc 43 aa bc bc 63 f9 be
       0.14812975 -0.2836058 -0.02078437 -0.48708904
000280 68 65 10 3d 22 c5 e5 be ba 0a e9 3b 44 0a d9 bd
       0.03525296 -0.44876963 0.0071118744 -0.10597661
000290 b4 cd a4 3e 0e 28 94 3e dc 67 9d be 4e d9 8c 3e
       0.3218819 0.2893681 -0.307433 0.2750954
0002a0 4d e3 0f be bb af 4c be 9c ee 87 3c 17 27 48 bd
       -0.14051552 -0.19988911 0.01659327 -0.048865404
0002b0 65 38 07 3c 2d ac d8 be f7 5f 10 bf 33 9b 87 3e
       0.008253192 -0.4231886 -0.5639643 0.26485595
0002c0 c1 45 2b bd 59 aa 31 3a 42 9c 38 be 4d f3 c3 3e
       -0.04181457 0.0006777398 -0.18028358 0.3827156
0002d0 d5 6c b7 be 67 7f 17 3f 31 3c d5 3e cd 92 ae bd
       -0.3582522 0.59178776 0.41647485 -0.08524094
0002e0 50 e2 1b 3f fc 61 1f 3f 9f 65 62 3e 77 b5 87 be
       0.608922 0.6225889 0.22109078 -0.26505634
0002f0 88 4a ca 3e 8f ec 4d bd 2f 63 60 bc f6 fd 27 3e
       0.39509988 -0.050274428 -0.013695522 0.16405472

bias f4 [32]
000000 ed 34 fd 3d 6d 25 1d 3d de 10 44 be 60 95 6a 3e
       0.123636104 0.03836577 -0.1914706 0.22908545
000010 4f 51 df 3e 6a 10 74 3e 7e 6b 33 3d aa 74 1b 3f
       0.4361672 0.23834386 0.043803684 0.6072489
000020 72 7d a4 3e c8 cb ff 3d 7b e2 d9 3e a4 fd 0b 3f
       0.32126957 0.1249004 0.42555603 0.546839
000030 f0 92 64 3e a5 0b 9a 3e 00 c2 11 3f 26 58 34 3e
       0.22321677 0.3008701 0.56936646 0.17611751
000040 3f b8 af 3e f5 70 99 3e ae e8 a3 3c a6 5b 1b 3f
       0.34320256 0.29968992 0.020008411 0.6068672
000050 37 cb 3b 3e 60 8f 00 3f 70 a4 04 3f 55 1a 06 3e
       0.18339239 0.5021877 0.5181341 0.13095982
000060 66 82 78 be 60 5b a4 3e 41 8e e1 3e df f6 b1 be
       -0.24268493 0.32100964 0.44053844 -0.3475866
000070 4e e7 05 3e d4 ca 44 3f 5b c4 29 3e 9a f2 22 3f
       0.13076517 0.7687199 0.1657881 0.6365143

weight f4 [104, 32]
000000 e5 34 32 be ec b7 0d be e1 bd 59 be 23 4d 91 be
       -0.1740299 -0.13839692 -0.2126384 -0.28379163
000010 f4 b0 e0 bd 9c 03 5d be f6 a3 4a bd d5 51 70 be
       -0.10971251 -0.21583408 -0.04947277 -0.23468716
000020 99 59 96 be 58 4e c7 bd 1c 6a f7 bd ae a6 18 be
       -0.29365233 -0.0973174 -0.12080786 -0.14907333
000030 0f 22 8c be 01 77 30 be 2a 24 24 bd 5c f1 23 be
       -0.27369735 -0.17232896 -0.04007355 -0.1601004
000040 13 e6 00 be e4 36 3a be f7 27 c4 bc 08 59 8e be
       -0.12587766 -0.18185002 -0.023944838 -0.278023
000050 ba dd a4 bd e3 d2 93 be 6e b0 ce 3d 3e db 48 be
       -0.080501035 -0.2887183 0.10092245 -0.19614884
000060 12 bc 2d be 05 eb b8 3d 3d 48 6d bd ff f5 eb 3c
       -0.16966274 0.090292014 -0.05793022 0.028803824
000070 91 aa 40 be dc f8 41 3d e0 06 42 bd 65 e5 06 be
       -0.18815066 0.04735647 -0.047369838 -0.13173445
000080 c3 3a 29 be bd 33 14 be f1 d7 ca be bf b0 d1 be
       -0.16526322 -0.14472862 -0.39617875 -0.4095516
000090 7f 88 23 be 84 65 c1 be 4c 16 c8 bd 23 2a 72 be
       -0.15970038 -0.37772763 -0.09769878 -0.23648886
0000a0 a3 77 f4 be ab b3 50 be 1c 51 4b be a6 3b 94 be
       -0.47747526 -0.20381038 -0.1985516 -0.28951758
0000b0 58 8e 2e be 7c 43 c4 be 34 fe a1 be e3 d2 b8 be
       -0.17046487 -0.38332736 -0.31639254 -0.36098394
0000c0 6e d1 45 be 83 3d ab be e7 ca 4e be a8 af 91 be
       -0.19318172 -0.33445367 -0.20194589 -0.28454328
0000d0 f3 07 4b be af ed 7f be cf fe 80 be f4 3a e1 be
       -0.19827251 -0.24993013 -0.25194404 -0.4399029
0000e0 ee 88 dd be 02 82 27 be 36 e7 0e be 7b 5e e2 bd
       -0.43268532 -0.16358188 -0.13955387 -0.11053177
0000f0 46 75 87 be d4 2c 00 bf 4e 9b a2 be a8 e1 5d be
       -0.2645666 -0.500684 -0.31759113 -0.21668112
000100 0c 72 99 be d4 64 54 be f7 f1 07 be c6 13 a4 bd
       -0.29969823 -0.20741588 -0.13275896 -0.08011584
000110 f9 16 b2 be b8 b2 98 be 6c bd c0 be 30 05 18 be
       -0.34783152 -0.29823852 -0.37644517 -0.14845729
000120 d8 9b a5 be 22 03 31 be 97 37 ec be 81 90 07 be
       -0.32345462 -0.17286351 -0.46136162 -0.13238718
000130 8f 25 a3 be 44 a2 e9 bd 01 7f a3 be 99 18 ad bd
       -0.31864592 -0.11407903 -0.31932834 -0.08451957
000140 d2 57 08 be 77 e2 47 be 3f ef b3 be fb ce bc be
       -0.13314751 -0.19519983 -0.35143468 -0.36876664
000150 ab 17 df be 58 79 66 be aa 80 e1 be cb cf bc be
       -0.43572745 -0.22507226 -0.44043475 -0.36877283
000160 c0 6f a7 be f2 12 bd be 3e 96 43 be 43 48 39 3d
       -0.32702446 -0.36928517 -0.19100282 0.04523493
000170 fc 6e e3 be 8d 72 b4 be a2 03 bc be e7 0e ab be
       -0.44420612 -0.35243645 -0.36721522 -0.33409807
000180 5d 02 d4 3d 47 62 1f be be 29 25 be d5 65 db be
       0.10352013 -0.15564834 -0.16129205 -0.4285113
000190 eb 3d 28 be f2 23 63 be c1 a3 53 3c d2 cc 87 bd
       -0.1642987 -0.22181681 0.01291746 -0.06630863
0001a0 ba 95 d1 bd 52 93 dc 3d b1 56 7c be 00 95 34 be
       -0.10233636 0.107702866 -0.24642445 -0.17634964
0001b0 11 57 b8 bd ad e1 21 be 1a 1c 01 bc 48 6e 12 be
       -0.090009816 -0.15808745 -0.007880235 -0.14299881
0001c0 21 bb 96 be a8 07 28 be bf 19 be be ce e9 11 be
       -0.29439643 -0.1640917 -0.37129018 -0.14249346
0001d0 ff 64 e7 bd c6 92 ea bd a2 12 a4 be b4 e5 db bc
       -0.1129856 -0.11453776 -0.32045466 -0.02684293
0001e0 0b e3 58 bc d0 b1 65 be 84 0e b0 bc 0f 38 b5 bc
       -0.013237725 -0.22431111 -0.021491297 -0.022121457
0001f0 78 99 af bd eb 4a 2b be 65 92 22 be 6f 58 37 be
       -0.08574194 -0.16727798 -0.15876158 -0.17904828
000200 43 27 a4 3d 54 63 7f bd 1a 51 3c bd e2 21 d3 3d
       0.08015301 -0.062350586 -0.045975782 0.10309197
000210 90 29 42 bd b4 50 46 3e fc f2 cc 3d 76 16 df 3b
       -0.04740292 0.19366723 0.10007283 0.0068080975
000220 f7 f8 c9 3c b9 3b af 3d 32 d8 76 bd 24 ee 99 3d
       0.024654849 0.08556313 -0.060264774 0.07516125
000230 b0 e7 60 3e 40 fc 45 3d 90 0f 5e 3e 73 6c c6 3d
       0.21963382 0.048336267 0.21685624 0.09688654
000240 1f 1a 46 3d eb dd 23 bd 0f ad 69 3e 29 3b da 3c
       0.048364755 -0.04000656 0.22819923 0.026639538
000250 fb d4 4d 3e c1 c4 50 3e c6 c6 40 3e 87 2a d2 3d
       0.20100777 0.20387556 0.18825826 0.10262018
000260 13 b8 4b be 84 86 05 3e ab c7 0d bd dd 4b fb 3d
       -0.19894437 0.13039595 -0.034614246 0.12270329
000270 89 4a 05 3e dd de 7d 3d e7 72 91 3d 70 75 8a 3d
       0.13016714 0.061980117 0.07101994 0.06760681
000280 c3 82 d2 bd 1a e0 4d be c8 70 bd be f0 fe bb bd
       -0.10278847 -0.20105019 -0.37000108 -0.09179485
000290 67 f1 98 be f2 d1 92 be 7a 1b fc bd 88 35 84 be
       -0.29871675 -0.286758 -0.12309928 -0.2582209
0002a0 f1 17 c9 be e2 ca 30 be ed 63 ab be 88 0c df bd
       -0.39276078 -0.17264894 -0.33474675 -0.10891062
0002b0 cc 48 d0 be 58 dc 7e bd 2a 32 97 be ed 1e 02 be
       -0.4068054 -0.062221855 -0.2953046 -0.1270711
0002c0 4f 9e b9 be 2b 1e db bc 31 44 d6 be 25 c9 c7 be
       -0.36253592 -0.026747784 -0.418489 -0.3902065
0002d0 d9 a4 fe bd 8e 35 83 be 04 23 cf be 97 f0 8c bd
       -0.12433786 -0.25626796 -0.40456402 -0.06881826
0002e0 4c a3 06 be 9d ed 1e bd a9 42 93 bd 46 d3 7b be
       -0.1314823 -0.038800824 -0.07190449 -0.24592313
0002f0 0d 6f e4 bd fb 4b f4 bd f7 0d a1 be 4a 7f a8 bb
       -0.11153994 -0.119285546 -0.31455967 -0.005142127
000300 4e 86 de 3d f7 2d 51 3e 0c 6d b3 bd b9 d4 95 be
       0.1086546 0.2042769 -0.087610334 -0.29263857
000310 d9 40 05 3e 7c ef 36 be bc ec 72 be 1b db 52 be
       0.13013019 -0.17864794 -0.2372312 -0.20591395
000320 ea ad b9 be c6 07 6c 3e bf ee f4 3c 72 3f 88 3d
       -0.36265498 0.2304984 0.029899 0.06652726
000330 9d 55 84 be 99 a4 5b bc 70 30 38 bd 41 6a d0 be
       -0.25846568 -0.013405942 -0.04496807 -0.40706065
000340 b6 50 0c bf a3 4c 4a bc f4 91 a3 be 0b 07 c6 be
       -0.54810655 -0.012347373 -0.3194729 -0.38677248
000350 4c 17 99 be 28 01 ec be 2a cb 35 be 78 40 3d be
       -0.29900587 -0.46094632 -0.17753282 -0.18481624
000360 c6 ce ce 3d 63 c5 66 3e 5b 61 40 3e cc 6e be bd
       0.10098033 0.22536235 0.18787138 -0.092984766
000370 51 eb 4d 3e 4a 03 39 be d4 32 ad be 1f a0 a3 3d
       0.20109297 -0.18067661 -0.3382784 0.07989525
000380 e9 04 93 be 70 e5 48 bc 82 e2 56 be cb 47 82 be
       -0.28714684 -0.012261733 -0.20984843 -0.254454
000390 29 45 17 bd c7 72 63 be d6 47 89 be d7 3b 2d be
       -0.03693119 -0.22211753 -0.2681262 -0.16917358
0003a0 a4 1e a2 bc 44 f0 9c be 23 ed aa bd 80 59 9d be
       -0.019790001 -0.30652058 -0.083460115 -0.30732346
0003b0 f1 39 93 bd f9 e1 3f be 90 45 d9 bd 88 07 9e be
       -0.07188786 -0.18738545 -0.10608971 -0.3086512
0003c0 22 9c 7c be be 35 5c be 23 ca 67 bc 02 34 4e be
       -0.24668935 -0.21504876 -0.014147314 -0.20137027
0003d0 53 97 a7 be 94 50 cc bd 26 8a 34 be 6f 0d 04 bd
       -0.3273264 -0.099763066 -0.17630824 -0.032239374
0003e0 ab a8 8b be d2 0f 91 be b5 9e fc bc ea 9b ba bd
       -0.2727712 -0.28332382 -0.030837396 -0.091117695
0003f0 ef f9 9a be 66 16 b2 be f8 13 89 be 59 b0 cf bd
       -0.3026881 -0.34782714 -0.26773047 -0.101410575

bias f4 [104]
000000 77 e8 5a be 82 5b b4 be dc c7 0d bf f3 ec 42 be
       -0.21377741 -0.35226065 -0.55383086 -0.19035701
000010 86 e3 ca 3e c2 50 c2 be a0 a0 5e 3e cc 55 36 be
       0.39626712 -0.37952238 0.21740961 -0.17806166
000020 e6 2f be be b2 7b fc be 21 54 ad 3d 87 29 40 bc
       -0.3714592 -0.49313122 0.08463312 -0.011728651
000030 50 17 43 be 1a 3d 85 3e 4d dc 7d be d8 6a 1b 3e
       -0.19051862 0.2602318 -0.2479107 0.15177476
000040 8f 25 0c 3e 81 3b 60 3d 36 02 42 3d b6 e0 5b 3d
       0.13686202 0.054744247 0.04736539 0.053681098
000050 2b 7a 19 be bb f9 3e be 08 c7 28 be 68 3d 83 be
       -0.1498801 -0.18649952 -0.16482174 -0.25632787
000060 87 4e 51 bd 99 03 70 bc e8 bb d3 bd 6a 2c f9 be
       -0.05110028 -0.014649295 -0.10338575 -0.48666698
000070 34 9e 0d be 7d 1a fc bd 4e fc 9f bd f4 16 4c be
       -0.13829881 -0.1230974 -0.07811795 -0.19930631
000080 0c 41 db bd 7c 61 cd be d8 78 0f be 0b 8f 0f bf
       -0.10705766 -0.40113437 -0.14010942 -0.5607764
000090 aa 30 e7 be 73 6f 8a be a4 bb 20 bf 85 ad 5f be
       -0.45154315 -0.27038154 -0.62786317 -0.21843536
0000a0 24 6d 44 be d1 68 24 be be 78 a9 be 69 1a b9 be
       -0.19182259 -0.1605561 -0.3309993 -0.36152962
0000b0 f6 72 0e be 6a 11 99 be 7a 84 0a bf 71 18 50 3d
       -0.13911042 -0.29896098 -0.54108393 0.05080456
0000c0 ce cc 99 be 90 33 b8 be 67 72 86 be 01 38 b4 be
       -0.30039066 -0.3597684 -0.26259157 -0.35198978
0000d0 ca 0f f4 be 3f 82 64 be d0 31 e3 be 78 8e 2f 3d
       -0.47668296 -0.2231531 -0.4437394 0.04286048
0000e0 9b 2d 0d be 54 47 1f bf 20 b0 15 bf 53 40 3e be
       -0.13786928 -0.62218213 -0.5847187 -0.18579225
0000f0 0c f8 98 bc 71 bf c4 be 25 d1 65 be 84 cd 15 bf
       -0.018672965 -0.38427308 -0.22443064 -0.58516717
000100 1f 4e 83 bd 09 f0 2e be 34 5e 00 bf dc 97 38 be
       -0.06411385 -0.17083754 -0.5014374 -0.1802668
000110 1c e9 03 bf 95 50 81 be 96 de 2a bf 87 34 ff be
       -0.5152757 -0.25256792 -0.6674589 -0.49844763
000120 d1 81 72 be 32 38 e2 be 93 aa d6 be f7 db 23 bf
       -0.23682334 -0.441835 -0.41927013 -0.64007515
000130 89 c5 46 be 4a 26 f1 be 0f fe d1 be bc 49 04 bf
       -0.19411291 -0.47099525 -0.41014144 -0.5167501
000140 95 45 f1 bd ab c7 0f bf c2 0a 04 bf b6 85 b8 be
       -0.1178085 -0.56164044 -0.51578915 -0.36039513
000150 f9 86 ed be 0e a2 e2 be fb fa f3 be a6 3f 6e be
       -0.46392038 -0.44264263 -0.4765242 -0.23266467
000160 2d b4 16 bf 12 3d 05 bf df 3a c3 be a0 e1 4a be
       -0.58868676 -0.5204631 -0.38130853 -0.19812632
000170 19 4e c2 be 94 ae 0a bf 2e 1b 23 bf a2 85 c1 be
       -0.3795021 -0.54172635 -0.6371335 -0.37797266
000180 90 36 dd be 32 c5 d9 be ed 50 ca be 9d 9a 0b bf
       -0.4320569 -0.4253326 -0.39514866 -0.54532796
000190 e4 70 cc be 20 e1 1f bf cb cf 24 bf 0f 17 0a bf
       -0.3992988 -0.6245289 -0.64379567 -0.53941435
