models/pytorch_multi_beer_evaluation.pt (torch, 16483 bytes, 4 tensors)

layer_1.weight f4 [32, 6]
00000000: 4c6f eb3e d585 123f 2da6 38bd dd79 f03e
00000010: 0b2b 8b3e cc17 b13e 9b86 eebe f5d7 6fbd
00000020: 04c1 2f3e 11af d2be 61d5 e73d 3896 0abe
00000030: 3793 84bd 43de bbbe dd52 6dbe 34b0 c1be
00000040: 33c7 bdbe f4c8 51be b96f 0abe 720c 463e
00000050: 7629 b1be cae7 a13d 2591 763e 54a6 973e
00000060: 957a 053f 7981 86be 6ed7 c83d cd9b ed3e
00000070: 7fcd 293e 6951 383d 0ba6 c4be 2fef 07bf
00000080: bf38 9bbe f267 2bbe 240c 26be 62ae d5be
00000090: 04f0 a2be f82a a9bd 56fb dcbd b736 b53e
000000a0: 5d77 793e cd50 66be 368f 12be 3898 b6be
000000b0: 7f71 04bf bfe2 29be fd7b fc3d bcfe 913e
000000c0: de61 0c3e 549f 0b3e 02b8 05be ddb6 29be
000000d0: 8289 ffbe 8568 7cbe f203 c53e 4637 4abd
000000e0: 657c d6be 94c1 2abe 1e3a bbbe 7f97 193e
000000f0: 140a adbe a883 01bf 4149 023e e3a1 04bf
00000100: f4d2 1bbf 2b73 d3bc 95b2 cbbd c2a3 20be
00000110: 46df fa3e ca4a 76bd e6db 4abd 58b7 253e
00000120: b03f a1be 52f3 e13e d791 ce3e 3f64 e73c
00000130: fdec 7cbd f907 6fbe 49d5 8abe f3ea 8dbe
00000140: 1a18 a7be e858 0fbd e7c0 87be 4b22 be3e
00000150: ae4c 5fbe 9d70 f93e b2a1 953d 48ba c83e
00000160: 66b3 7abe be1d cf3e 343d fabe c058 023e
00000170: 31a1 b63e 4efe c03d f779 923e 9f58 13be
00000180: 73dc 8d3e ec99 0c3f c7ed 913e e43f 063f
00000190: e259 df3e bad7 013f e9f6 9f3e 32fc b63e
000001a0: 63f4 32bd 07db 11bb 7932 083f 1cfb fe3e
000001b0: 4db4 a73e b4f2 dc3d e234 fabd 6d4b a23e
000001c0: 9e14 ce3e 1823 fd3e de56 40bc 6b1b 95be
000001d0: bb44 9bbe dec1 9abe c313 b63d 2480 253e
000001e0: a1e6 07be ba19 d3bd ef8b 11bf 67d5 78bd
000001f0: a953 d43d fcf3 84be 6ac1 c7be 4f52 f03d
00000200: 70e5 6cbe a172 94be d8d7 2fbd 0256 e3be
00000210: b8b5 9abe 60c6 7c3e 4b57 0e3f 9ab9 bc3e
00000220: 1863 17be 6ec3 ce3e c66e 853e 9f5c 16bf
00000230: a428 ebbd f48d b03d 5279 9ebe 8282 82be
00000240: 9adb c93e 4d93 2c3e 5163 b83d 959a c5be
00000250: d93d 923e 54e5 c1be 7d26 e23e 454c e5bd
00000260: d859 b9bd 70e4 44be 9133 33be 1dab 97be
00000270: aa1c d73e be7f 023f 00ac 1c3f 709c dc3e
00000280: c02e af3e 152a de3d 6d44 693e c90b 013f
00000290: 3609 cc3e bf7d fc3e 1b61 b13e 0c8c fe3e
000002a0: 7194 c13b 09a5 d0be dc97 8fbc b753 c93e
000002b0: 5c7a 45be 1af8 8abc 6c1b 4d3d 73b8 003f
000002c0: 9b09 fa3e bea1 60be 0cae ec3e 0283 0f3e
000002d0: 30e5 34bc 2ea7 fb3c ad16 183f 2a89 3ebd
000002e0: 091f 0d3f 2148 d53e 5bc8 6e3d 6151 c43e
000002f0: c378 45bc ccd7 253f c102 2f3f a28c 403e
0.4598335 0.5723546 -0.045080353 0.46967974 0.27181277 0.34588468 -0.4658707 -0.058555562
0.17163473 -0.4114919 0.11319996 -0.13533866 -0.064733915 -0.3669301 -0.23176141 -0.37829745
-0.3706604 -0.20486814 -0.13519181 0.19340685 -0.34601945 0.079055384 0.24078806 0.29619086
0.5214017 -0.26270655 0.09806715 0.4640793 0.16582297 0.044999514 -0.3840793 -0.5309934
-0.3031673 -0.1673887 -0.16215569 -0.41734606 -0.31823742 -0.08260149 -0.10790126 0.35393307
0.2436194 -0.2249176 -0.14312443 -0.3566301 -0.5173568 -0.16590403 0.123283364 0.2851466
0.13709208 0.13634998 -0.13058475 -0.16573663 -0.49909598 -0.24649246 0.38479573 -0.04936912
-0.4189178 -0.16675407 -0.36567777 0.14999197 -0.33796751 -0.50591516 0.12723257 -0.5180952
-0.60868764 -0.025811752 -0.09946171 -0.15687469 0.4899847 -0.06012992 -0.049526118 0.16183221
-0.31493902 0.4413095 0.40345642 0.028246043 -0.061749447 -0.23342885 -0.2711585 -0.27718315
-0.32635576 -0.034996897 -0.2651436 0.37135538 -0.21806595 0.4871873 0.073062316 0.3920462
-0.24482498 0.4045238 -0.4887482 0.12729168 0.35669854 0.09423505 0.28608677 -0.14389275
0.27707252 0.54922366 0.28501722 0.5244124 0.43623263 0.507198 0.31243065 0.35739285
-0.043690097 -0.0022255795 0.53202015 0.49800956 0.32754746 0.107884794 -0.12217118 0.3169817
0.40250105 0.49440837 -0.011739461 -0.2912248 -0.30325875 -0.30226034 0.08890488 0.16162163
-0.13271572 -0.10307641 -0.56854147 -0.06075039 0.103675194 -0.25967395 -0.3901475 0.11734449
-0.23134398 -0.28993705 -0.042930454 -0.44401556 -0.30216765 0.24685049 0.5560195 0.36860353
-0.14783895 0.40383476 0.26061076 -0.5873508 -0.11482361 0.086208254 -0.30951935 -0.25490195
0.39425355 0.16853066 0.09003318 -0.385945 0.2856281 -0.37870276 0.4416999 -0.11196188
-0.090503395 -0.19227767 -0.1750014 -0.29622737 0.42014056 0.5097617 0.6119995 0.43088102
0.34215355 0.1084787 0.22780009 0.5040861 0.39850777 0.49314687 0.34644398 0.49716222
0.005907588 -0.40750912 -0.017528467 0.39321682 -0.19284958 -0.016964007 0.05007498 0.5028145
0.48835453 -0.219367 0.46226537 0.1401482 -0.011040971 0.030719366 0.594096 -0.04651753
0.5512548 0.41656592 0.058296543 0.38343337 -0.012052718 0.64782405 0.6836358 0.18803647

layer_1.bias f4 [32]
00000000: 9e20 3a3f 72b4 2c3f 8e20 0bbd 16b7 a83e
00000010: 7d6c e83e eae7 fe3e f507 993e 4fb5 253e
00000020: 7f22 f63e 6714 e23c fc22 8c3d 1fbe ab3e
00000030: 83eb 463e 4306 2d3f 9166 143e afd1 4a3e
00000040: c7a2 223e 014a 493f adce 93bc 4107 3a3d
00000050: eb5c dcbc e140 cd3e 8ab9 3a3f 4cc2 083f
00000060: c9bd c13e 983a d33e c9c2 223f d4f1 363d
00000070: 6af0 4e3d 65cb 333f 3a90 d73d 626b 0d3f
0.7270602 0.6746284 -0.033966593 0.32952183 0.4539527 0.4978631 0.29888883 0.16182445
0.48073193 0.02759762 0.0684261 0.33543488 0.19425778 0.6758768 0.14492251 0.1980655
0.15882407 0.78628546 -0.018042887 0.045417074 -0.026899775 0.4008856 0.7293936 0.53421474
0.37840107 0.4125564 0.6357847 0.04466422 0.050522245 0.7023223 0.10525556 0.5524198

layer_out.weight f4 [104, 32]
00000000: 06aa 28be 0d16 cfbd 777f 43be 3aae 82be
00000010: 54e8 e1bc 5054 61bb 1a15 32be 4dcc 8b3c
00000020: f49d 113d c665 773d e91c 363d 0996 0fbe
00000030: 7183 46bd 533f d33c ce57 6e3c 46e0 c2bd
00000040: d391 48bd 5696 90be 9605 80be 6bdd 52be
00000050: 8a48 34be 8a74 543d ac20 1bbe 70f3 82bd
00000060: dc08 37be e565 163c b86c 7fbd 2fc6 51bd
00000070: 31ab d43b 0a61 e1bd 84f5 08be c587 a2bd
00000080: 0565 edbe b984 d6be 8288 b7be 4f2b 0ebe
00000090: 558e 97bd ede5 ccbe 7380 cbbe 38c0 94be
000000a0: 2d99 06be a0e4 53be ac2d dabe 6e21 abbe
000000b0: c0de bbbe 92d1 f2be 5e73 dbbe 5bac 90be
000000c0: 721f 85be 9cca c2be 00be 0cbe 358c ddbc
000000d0: 7623 c5be e670 f5be 7880 f6be e7e0 b4be
000000e0: 9cf5 73be faa1 f3bd 2a65 8bbe 82ae c6be
000000f0: 0514 5abd da87 eabe 7998 cebe 1ab6 cebe
00000100: 79fb 70be 4711 22be 4220 b2be 1f81 d2be
00000110: 21b3 7bbe 2a50 b4be 4dc9 50be 0cdf abbe
00000120: d1c1 50be 886d cdbe af3e dabd 8fa3 cebe
00000130: 2b92 debe f0da 74be d52e e1be 55bb e8bd
00000140: 0a8e b4be b4ba 97be 2a56 9ebe 1ff5 cabe
00000150: 3b55 55be 60b6 a0be ec2d a3be 599c f1bd
00000160: 7cfe 04be 6a49 b4be 7670 acbe ddcd 82be
00000170: 6e7d 9abe e4ca 00bf aeb0 8bbe 0b74 a1be
00000180: e240 2fbe 6059 7abd 4023 18bd 7946 c6bd
00000190: 8a45 e6bd 5fd3 95bd 7da9 d2bd 2f65 f13d
000001a0: f43a bf3d 011a c93d 268b 56be 8655 a9be
000001b0: af4c 4b3b 772a b8bd a13c 9bbe 12f7 f9bd
000001c0: 1edd 8dbe dba4 aebd 0220 84be 89c1 c13d
000001d0: a195 edbd e204 d03d 8208 81be 10fa f7bd
000001e0: 501f 973d e0d2 d3bc a1d2 56be deea 4abd
000001f0: 6625 fb3c 062a 8cbe daec 85be 9529 f7bd
00000200: cd6b a13e 0d01 2d3e 92dc 18bd 0f41 dbba
00000210: 1754 0d3e 502b 503d e808 bbbc 5441 edbc
00000220: 9fc5 0ebd 2334 6dbd b112 b43d 0b18 de3d
00000230: 2716 293e b597 793d 57fc 48bc 0e2d 933e
00000240: 16a2 b43c fe76 5a3e bb23 a93d d029 86bd
00000250: f93f 0c3e 128b bcbd 6558 873e 5f0b 3bbc
00000260: a478 0d3d fafd 8f3b 0d7b 213e 1428 073e
00000270: 1c97 683e a7d9 693e 859c 073e d11a 573e
00000280: 64a0 d6be ac68 94be 0f78 543d d502 85be
00000290: cd4b 19be 99de 11bd 560c 89be f830 6ebe
000002a0: 06ca 0abd e75f 7fbe dda8 c8bc 1603 8bbe
000002b0: f1f1 81be b780 9bbb 6224 afbe 82a2 94be
000002c0: c86d bfbe 7103 2bbe e4ff 0ebe 65b4 bfbd
000002d0: 7daf 96be e5a7 23be c27c 8ebe edd9 2fbe
000002e0: 60cf a0be 649c f9bd 0e40 e1be ae67 b7be
000002f0: 64ef 353b 1a63 b7be 5e63 83be c754 39be
00000300: db14 4ebe 051a e13d f002 d53d 6d8c a3be
00000310: da00 06be a36d 113e e868 c4bd d645 cd3d
00000320: 2319 b93d 12a8 fabc c863 d33d 913b 3bbd
00000330: 3979 89bd 4459 633d 3106 e8be 9332 4abe
00000340: 03a5 acbe 0d70 91be 3476 f0be 3866 3c3e
00000350: 5036 26bc bfb1 993d 2b2f f0be 0a01 273e
00000360: 93e9 293e 1bf9 02bc 3b2a 94be e6b5 cdbe
00000370: 01d3 b93d a73b 8fbe 4586 8cbe d65c d5be
00000380: a4a3 67be 1fab 8abe 8669 b1be 0e4b 233d
00000390: 01a9 79be 9114 51be 101c 013a 14cd 8fbb
000003a0: 2801 763c e3e0 983c 6e02 33bd ead7 97be
000003b0: 0ab7 a1be f8b9 66be 7276 73be 5895 5dbe
000003c0: acee 16be 2bb6 4bbe e598 a7b9 c15c dbbd
000003d0: 3eff dbbd 8b18 48be ec38 91be 58cd 5bbe
000003e0: 25bd 3dbe f75c 81bd 83da 4ebe fcd1 20be
000003f0: 4749 15bd a53f 15be 8c0d 90be bd67 61be
-0.16471109 -0.10111628 -0.19091593 -0.2552355 -0.027576603 -0.003438253 -0.17390862 0.017065192
0.035551026 0.060399793 0.044461165 -0.14022078 -0.048465196 0.025787031 0.014547301 -0.09515433
-0.048967194 -0.28239697 -0.25004262 -0.20592277 -0.17605796 0.051868953 -0.15149182 -0.06394088
-0.17874473 0.009179567 -0.06235954 -0.051214393 0.006490134 -0.11004837 -0.13374907 -0.07936052
-0.46366134 -0.41898134 -0.35846335 -0.13883708 -0.074001946 -0.4001917 -0.39746436 -0.290529
-0.1314437 -0.20692682 -0.4261297 -0.33423942 -0.36693382 -0.47425514 -0.42861456 -0.28256497
-0.26000553 -0.38045204 -0.13744354 -0.027044395 -0.38503617 -0.47937697 -0.4814489 -0.35327837
-0.23824161 -0.11896129 -0.2722562 -0.38805014 -0.05324175 -0.45806772 -0.40350702 -0.40373307
-0.23533429 -0.15826903 -0.34790236 -0.41114137 -0.24580051 -0.3521741 -0.2038929 -0.3356861
-0.20386435 -0.40122628 -0.10656487 -0.4035916 -0.43470892 -0.23911643 -0.43981043 -0.11363856
-0.35264617 -0.2963463 -0.30925113 -0.39640138 -0.20833294 -0.3138914 -0.31870973 -0.11797399
-0.12987703 -0.3521226 -0.3367955 -0.25547686 -0.3017382 -0.50309587 -0.27283233 -0.31533846
-0.17114595 -0.06112039 -0.037142992 -0.0968141 -0.11243732 -0.073157065 -0.102862336 0.11786877
0.09337416 0.09819413 -0.20951518 -0.33073062 0.0031021049 -0.089924745 -0.30319694 -0.12205328
-0.27707762 -0.085275374 -0.2580567 0.09460742 -0.11600805 0.10157181 -0.25201803 -0.121082425
0.07379019 -0.025857389 -0.20978786 -0.049540393 0.030657481 -0.2737581 -0.26157266 -0.12068478
0.31527558 0.16894932 -0.037319727 -0.0016727763 0.13801609 0.050822556 -0.022831395 -0.028961815
-0.034856435 -0.05791105 0.087926276 0.108444296 0.16512357 0.060935695 -0.012267194 0.28745311
0.022049945 0.21334454 0.08258768 -0.06550944 0.13696279 -0.09206213 0.26434627 -0.011416285
0.03453888 0.00439429 0.15769596 0.13198882 0.22713894 0.22836934 0.13243301 0.21006323
-0.41919243 -0.28986108 0.05187231 -0.25978723 -0.14970322 -0.035612676 -0.26767224 -0.23260868
-0.03388407 -0.24938928 -0.024494583 -0.27150792 -0.253799 -0.0047455686 -0.34207445 -0.29030234
-0.37388444 -0.16700532 -0.13964802 -0.093605794 -0.29430762 -0.15982015 -0.27829558 -0.17172976
-0.31408215 -0.12188032 -0.43994182 -0.3582129 0.0027761096 -0.35817796 -0.2566175 -0.18098746
-0.20125143 0.10991291 0.10400951 -0.31943074 -0.13086262 0.1420198 -0.09590322 0.10023086
0.090379976 -0.03059772 0.10321766 -0.045711104 -0.067125745 0.055505052 -0.45317224 -0.19745855
-0.33719644 -0.284058 -0.46965182 0.18398368 -0.010144785 0.075046055 -0.46910986 0.1630899
0.16593008 -0.007993962 -0.2893847 -0.4017784 0.09073449 -0.279752 -0.2744619 -0.4167239
-0.22621018 -0.2708368 -0.3465082 0.0398665 -0.24380876 -0.20418002 0.0004925141 -0.004388461
0.015014924 0.018661922 -0.04370349 -0.29656917 -0.3158496 -0.22531879 -0.23775652 -0.21639001
-0.14739484 -0.1989371 -0.00031966637 -0.10711051 -0.10742043 -0.19540612 -0.2836374 -0.21465051
-0.18529184 -0.0631656 -0.20200543 -0.15705103 -0.036446836 -0.1457506 -0.28135335 -0.2201223

layer_out.bias f4 [104]
00000000: 785e 73be 0a33 c2be 7620 0bbf 629d 7bbe
00000010: 3349 c23e 81c0 bfbe 8caf 3cbe f212 aabd
00000020: ae74 fabd f6ff 06bf 3294 a13e bdff 51bd
00000030: 2c07 183e ecdf cb3e b7c5 22be a290 443e
00000040: c58c 063e c75f 62be 3235 dabc 433d 373e
00000050: 590c 23be 69e8 4e3d 68b5 adbe 89f8 37be
00000060: 5c5f 373c 729f 9dba c52c 2dbd 62b9 02bf
00000070: 5e0e a5be 2bb8 debe e4f4 89be 1866 2eba
00000080: 28d1 11be a4f1 5bbe f5c9 22be f90c b8be
00000090: 1397 c1be bece 07bf c33b 01bf aef0 d8be
000000a0: 6fff 94be faa3 e9be e00e bebd d314 7cbe
000000b0: 9288 93be 87ea 93be 2e89 f6be 1274 75be
000000c0: c2ab f7be 99ad b8be faf9 f1be 5efd 98be
000000d0: 5946 f2be e430 c73d 1221 87be 8d15 44bd
000000e0: fb3e d0be 2ca6 febe e6f9 adbe 802b c4be
000000f0: 7797 f83c 7351 a6be 260e 4ebe 0a38 00bf
00000100: 67a6 95bd c955 49bd 41ff 03bf fcef 9abe
00000110: 4b72 c0be 5519 a5be b4e0 23bf f0a3 09bf
00000120: feee c0be 929d c7be c4bf c8be 4706 23bf
00000130: a260 e3be 2318 14bf a952 bcbe 7841 ebbe
00000140: e2ee a0be 4c6f cdbe 3e14 98be fd97 b2be
00000150: 6518 21bf f106 94be 1ff7 85be adf4 87be
00000160: 28b4 f4be 0559 0cbf e6fe 89be dead abbe
00000170: b99c aabe b1c7 18bf 669b 13bf 3bfb 27bf
00000180: a803 b6be 0898 f8be 988a cfbe 1491 97be
00000190: efd6 0cbf 323a f5be 9ca4 aabe d132 07bf
-0.23766506 -0.37929565 -0.54346406 -0.24571756 0.37946472 -0.37451556 -0.18426341 -0.08304395
-0.12229286 -0.52734315 0.31558377 -0.05126928 0.14846486 0.39819276 -0.15895735 0.19195798
0.13139637 -0.22106849 -0.026636694 0.17894463 -0.15922679 0.050514612 -0.33927464 -0.17965902
0.011192169 -0.0012025668 -0.042279024 -0.5106412 -0.32237524 -0.43499884 -0.2694465 -0.00066527864
-0.14239943 -0.21478897 -0.15897353 -0.35947397 -0.37810573 -0.5304984 -0.50481814 -0.42371124
-0.2910113 -0.45632917 -0.09280181 -0.24617319 -0.28815132 -0.28889868 -0.48151535 -0.23970059
-0.48373228 -0.36069945 -0.4726103 -0.29880804 -0.47319296 0.09726122 -0.26392418 -0.047872115
-0.4067305 -0.49736154 -0.3397972 -0.38314438 0.030345662 -0.32484016 -0.20122585 -0.5008551
-0.07307129 -0.049154077 -0.5156136 -0.3026122 -0.375872 -0.3224589 -0.64014745 -0.53765774
-0.37682337 -0.38987404 -0.39208806 -0.63681453 -0.44409662 -0.5784933 -0.36781815 -0.45948386
-0.31432253 -0.40123975 -0.29702944 -0.34881583 -0.6292785 -0.28911546 -0.261651 -0.2655386
-0.47793698 -0.54823333 -0.26952285 -0.33531088 -0.33322695 -0.59679705 -0.57658994 -0.6561772
-0.35549664 -0.4855349 -0.40535426 -0.29602873 -0.5501546 -0.47895962 -0.33328712 -0.52811915
